smart_music_recommendation.tflite (tflite, 2904 bytes, 5 tensors)

arith.constant f4 [1, 8]
00000000: 58fd fbbd 0401 a6be 6b7f 133f 9609 3e3f
00000010: d3d6 01bf 37f0 423f b8e0 f63d fc4b 453f
-0.12304181 -0.3242265 0.576163 0.74233377 -0.5071842 0.7614779 0.120545805 0.7706907

arith.constant1 f4 [8, 16]
00000000: e000 ffbe 7080 e63e 440f d9be 10ba 1b3e
00000010: e0c6 a6bd 6860 723e 0009 103c 605e b03d
00000020: 089b 41be 8461 8c3e 0036 0b3b c094 843e
00000030: 602f 303e f8d5 413e d035 e2bd 0086 3bbd
00000040: 0c60 ccbe f0d1 d53e ace2 943e f0dc e9bd
00000050: f803 b23e 6c6c f4be b87c a9be d0d2 4dbe
00000060: 886d a9be a48d a6be a0f2 ebbd c4a8 cabe
00000070: 007f 55bc a017 7bbd b421 ac3e 0033 59bc
00000080: e765 f63e b448 b73e a640 e13e 96ea ccbe
00000090: 00f4 a73e 6003 593d 8cce 01bf 4066 e0bc
000000a0: 4496 a1be 7857 033e 072c 7b3d ce44 8ebe
000000b0: f8ed ddbc 2b62 c33d 8bb9 933e 2c20 cbbe
000000c0: 3ce0 bdbe 705a 89bd 608c 293d 64ae 9dbe
000000d0: 88c2 b7be c427 f1be f08f d5bd 5820 5dbe
000000e0: e4f0 b0be a47f 953e 1835 cfbe d87d 0c3e
000000f0: f0d9 bcbe 6042 b3bd ac86 f33e a8d8 22be
00000100: 7891 cc3e 0b07 86bd 03cc 953e 9ce5 84bd
00000110: 10ad 43be f0ad 9e3d 771f 043f c44e b6be
00000120: e8d9 323e a4d5 ef3e bbf9 123e 5553 cfbd
00000130: 9d88 bf3e a9c1 62be 8d5f 1f3e cf2f 763e
00000140: 63ec b53e daf5 c13d c13e b93e 9f46 ac3c
00000150: 6469 9fbe c097 133e 0faa 313e c8a1 a7be
00000160: 00d7 e93b a06b e8bd b57d b93e a68d e8be
00000170: d886 a83e 66d3 96be 4c07 863e c492 a5bd
00000180: c481 d53e 80b4 bd3c 50d0 343e a8d7 f8be
00000190: d0e9 cabd f8cd f43e 9061 093e 38b0 c7be
000001a0: 50b5 2bbe a082 a33e e033 783e ac2a 89be
000001b0: b851 323e 2026 503e b8d8 8cbe 6ceb a6be
000001c0: 707f 793e 8028 323c a0f5 b2be f07d d9be
000001d0: 002c 0cbb 689a 633e c0d8 db3c e0c3 19be
000001e0: 1090 86bd f0f6 d7be 4cac cbbe f4a5 f8be
000001f0: 88cf 883e 3456 9ebe 60c2 21bd 2825 8a3e
-0.49805355 0.45019865 -0.4239446 0.15207696 -0.08143401 0.23669589 0.008791208 0.086117506
-0.18906796 0.2741815 0.0021241903 0.25894737 0.17205572 0.18929279 -0.1104542 -0.04578209
-0.39917028 0.41761732 0.29079187 -0.114190936 0.34768653 -0.4773897 -0.33102965 -0.2009995
-0.33091378 -0.32529938 -0.115208864 -0.39581883 -0.013030767 -0.061301827 0.33619463 -0.013256788
0.4812462 0.35797656 0.43994635 -0.40022725 0.32803345 0.052981734 -0.5070579 -0.027392507
-0.31559956 0.12826335 0.061321285 -0.2778687 -0.027091011 0.095402084 0.28852496 -0.39672983
-0.3708514 -0.06706703 0.041393638 -0.30797112 -0.35890603 -0.4710065 -0.104278445 -0.2159437
-0.34558785 0.29198945 -0.40470195 0.1371988 -0.36885023 -0.087528944 0.47563684 -0.1590296
0.39954734 -0.06544312 0.2925721 -0.06489107 -0.19108987 0.0774802 0.5161051 -0.35606968
0.17465937 0.46842682 0.14353077 -0.10123316 0.37408915 -0.22144188 0.15563793 0.24041675
0.3553191 0.094707206 0.3618069 0.021029769 -0.31135094 0.14413357 0.17350028 -0.32740617
0.0071362257 -0.11348653 0.3622872 -0.4542057 0.32915378 -0.2945816 0.26177442 -0.08084634
0.41700566 0.023157358 0.1765759 -0.48602033 -0.099078774 0.47813392 0.13416123 -0.39001632
-0.16768384 0.31935596 0.24238539 -0.2679037 0.17413986 0.20327044 -0.27509093 -0.32601488
0.2436502 0.010873914 -0.34953022 -0.42478895 -0.002138853 0.2222687 0.026836753 -0.15016127
-0.065704465 -0.42180586 -0.3977989 -0.48564112 0.26720834 -0.30925143 -0.03949201 0.26981473

sequential_1/dense_1_2/BiasAdd/ReadVariableOp f4 [8]
00000000: 0000 0000 0000 0000 20bc 55bc 0000 0000
00000010: 7482 223d 7979 20bd 0000 0000 0000 0000
0.0 0.0 -0.013045341 0.0 0.03967519 -0.039178345 0.0 0.0

sequential_1/dense_1/BiasAdd/ReadVariableOp f4 [16]
00000000: 1b9c f5bc 264c c8bc 8d0f 08bd 56f6 bcbc
00000010: 0000 0000 0000 0000 a76d 023d 0000 0000
00000020: 0000 0000 0000 0000 05d1 1abd 1f29 1c3d
00000030: 7a70 16bd 74f4 293d b89a 0dbd 5898 133d
-0.029981663 -0.024450373 -0.033217955 -0.02306668 0.0 0.0 0.031842854 0.0
0.0 0.0 -0.037796993 0.038125154 -0.03672836 0.041492894 -0.03457138 0.03603396

sequential_1/dense_1/MatMul f4 [16, 3]
00000000: 48a4 e4be 3ebf bf3e 42f0 d93e ebd6 0b3f
00000010: 5310 f63b b97f 9dbe c9e8 97be 8b05 533e
00000020: 92bc a2bd 0296 0f3f 5d01 ef3e 97bb db3e
00000030: 92bb bdbe a24d 04bf 48d5 bdbd 10dd 4e3d
00000040: 7037 5ebe e2ab ea3e 0106 0abf 3caa 9b3e
00000050: 6c07 b03d 0012 1b3b cc4b 09bf 00ad f43d
00000060: 58df 063e c2f9 c7be 5b23 043f 49fe 0a3f
00000070: 4ee1 51be 70d6 713e c071 9b3e d1f2 de3e
00000080: 8df1 eabe bbce 5a3e 5e40 073f 0289 25bc
00000090: a970 0a3f 86bf 9b3e 721b 0fbf 3bc2 85be
000000a0: 89ad 9f3e d7d9 aabe ed84 dabe 8b09 e53e
000000b0: 0cd8 973e 54c3 d8be 6661 f83d 2019 f93e
-0.44656587 0.37450594 0.42566115 0.54624814 0.00750927 -0.30761507 -0.29669788 0.20607583
-0.07946123 0.5608827 0.46680728 0.42916557 -0.37057167 -0.5168096 -0.09269196 0.05050379
-0.21700835 0.4583426 -0.5391541 0.30403316 0.085951656 0.0023661852 -0.5363128 0.1194706
0.13171136 -0.39057738 0.5161645 0.5429426 -0.20496103 0.23616958 0.30360222 0.4354463
-0.45887414 0.21367924 0.5283259 -0.010103466 0.54078156 0.30419558 -0.55901253 -0.2612475
0.31187084 -0.33369324 -0.4267954 0.44733843 0.29657018 -0.42336524 0.12127952 0.4865198
